trained model/optimal model.pth (torch, 487976 bytes, 59 tensors)

weight f4 [64, 92]
0	0xbdf7c8be	-0.120988354
1	0xbdce833d	-0.100836255
2	0x3e1a4143	0.15063958
3	0x3d0ed90e	0.03487497
4	0x3c1b3ac4	0.00947446
5	0xbd08c152	-0.03338749
6	0xbda7f580	-0.08201122
7	0x3dc5b781	0.09654141
8	0x3db1baec	0.08678231
9	0x3e235bc0	0.15952969
10	0x3b8d7281	0.0043166284
11	0x3e0f5087	0.13995562
12	0xbcd517d7	-0.026012344
13	0x3e002fa9	0.12518181
14	0x3e12e2b6	0.14344296
15	0xbe292c6a	-0.16520849
16	0x3dd844a8	0.1055997
17	0xbe4a5c7a	-0.1976184
18	0x3cf77d70	0.03021118
19	0xbded1ca4	-0.115777284
20	0x3dc69c29	0.09697754
21	0xbb1561ca	-0.0022793883
22	0x3e47bbd3	0.19505243
23	0xbe377e90	-0.17919374
24	0x3e234ca4	0.15947205
25	0xbe0d7876	-0.13815483
26	0x3e27bd6c	0.16380852
27	0xbe23deb5	-0.16002925
28	0x3d08c5bf	0.03339171
29	0x3d62b54c	0.05534868
30	0x3d581bf2	0.052761026
31	0xbcd5cc58	-0.026098415
32	0xbc3e5180	-0.011616111
33	0xbe345d2e	-0.1761367
34	0xbd73d131	-0.059525672
35	0xbd8c7375	-0.06857959
36	0xbdd261c8	-0.102725565
37	0xbe3fa441	-0.18715002
38	0xbe483df2	-0.1955488
39	0x3e3f3b9a	0.1867508
40	0x3bc483c7	0.0059971544
41	0x3e633d55	0.22191365
42	0xbd923473	-0.0713891
43	0xbd85f9fe	-0.06541823
44	0x3ce3b496	0.027796071
45	0xbe3e62a4	-0.18592316
46	0x3d84e5bb	0.0648913
47	0xbd5b1af9	-0.05349252
48	0xbe374678	-0.17897975
49	0x3db2cf66	0.08730964
50	0xbc999764	-0.018748946
51	0xbce0be11	-0.02743438
52	0xbd1236be	-0.035696737
53	0xbe0bdf34	-0.13659364
54	0xbd017753	-0.031607937
55	0x3e5f352b	0.21797626
56	0x3da2f191	0.079562314
57	0xbe5b7f50	-0.21435285
58	0xbe4ba10f	-0.19885658
59	0xbd19a9f4	-0.037515596
60	0xbd8ed2fc	-0.06973836
61	0x3e0da2c4	0.13831621
62	0x3e25d030	0.16192698
63	0x3d156420	0.03647244
64	0xbe0a832c	-0.135266
65	0xbccd09d9	-0.02502911
66	0xbe3f0bdd	-0.18656869
67	0xbdc07717	-0.093977146
68	0xbd122d5c	-0.03568779
69	0x3c803d40	0.015654206
70	0xbdd60d53	-0.1045176
71	0x3c2141e0	0.009842366
72	0xbd8b38c6	-0.06797938
73	0xbe27fdd5	-0.16405423
74	0xbd719e93	-0.05898912
75	0x3da2ca0b	0.07948693
76	0x3d14f19c	0.03636323
77	0x3cf24482	0.029573683
78	0x3e42339d	0.18965001
79	0x3c5fbafd	0.013655421
80	0xbdd722a2	-0.105046526
81	0xbda7c7b6	-0.08192389
82	0xbc84e36f	-0.01622173
83	0xbdd80889	-0.10548503
84	0xbdfdaeea	-0.12386878
85	0x3dac64d0	0.08417666
86	0x3cceb986	0.025234949
87	0x3e2d736d	0.16938563
88	0xbde6663a	-0.11249967
89	0x3d5c03ac	0.05371444
90	0xbe00658f	-0.12538742
91	0x3dd3f3f5	0.103492655
92	0xbca18c9d	-0.01972037
93	0xbd89318e	-0.06698905
94	0x3d85867b	0.06519791
95	0x3cf1e4b1	0.029527994
96	0x3d8f45f1	0.06995762
97	0x3d50d1e8	0.050981432
98	0x3e3e9bf5	0.1861418
99	0x3d9d0d5d	0.076685645
100	0x3ddbb5e3	0.107280515
101	0x3e2eb55f	0.17061375
102	0x3c7272ba	0.014797861
103	0x3e2a4ef4	0.1663168
104	0xbe404ac2	-0.18778518
105	0xbe0ed7fe	-0.13949582
106	0xbc634104	-0.013870481
107	0xbb6e81e4	-0.0036393339
108	0x3d9b0721	0.07569719
109	0x3deb13fb	0.1147842
110	0xbe02dbda	-0.12779179
111	0x3e3904bf	0.18068217
112	0xbe33dcc8	-0.1756469
113	0xbd23c6c9	-0.0399845
114	0x3d75abdb	0.059978347
115	0x3e05128f	0.12995361
116	0xbbb6aba5	-0.005574661
117	0x3e0ab0b9	0.13543977
118	0x3d282e3f	0.04105973
119	0x3df3cafb	0.1190395
120	0x3defc87b	0.117081605
121	0xbddb0d43	-0.10695889
122	0x3cd8a13f	0.026444076
123	0x3cae8e08	0.02130796
124	0xbd37feb4	-0.04492064
125	0xbd56e970	-0.052468717
126	0xbbc882d2	-0.0061191106
127	0xbe15704f	-0.14593624
128	0xbd0d21d0	-0.034456074
129	0x3dc4250d	0.095773794
130	0xbe4294e8	-0.19002116
131	0x3d3fa189	0.04678491
132	0x3e459215	0.19294007
133	0xbe41a4c1	-0.18910505
134	0xbe385553	-0.18001299
135	0xbe4ec7cf	-0.20193408
136	0xbdda1b0c	-0.1064969
137	0xbd52907b	-0.05140732
138	0xbd4b4d40	-0.04963422
139	0x3cfe042d	0.03100785
140	0xbc8a9027	-0.01691444
141	0x3e07e473	0.1327074
142	0x3d9186f0	0.071058154
143	0x3ddb15e6	0.10697536
144	0xbda3320c	-0.0796853
145	0x3d444991	0.04792172
146	0xbe3cf723	-0.1845365
147	0xbe3a9fa5	-0.18224962
148	0xbd939699	-0.072064586
149	0xbc3ab8a9	-0.0113965655
150	0xbd339f71	-0.043853227
151	0xbdffa37a	-0.124823526
152	0xbd007a81	-0.03136683
153	0x3e497ead	0.19677229
154	0x3e1cf28b	0.15326898
155	0xbda7e577	-0.08198064
156	0x3de21603	0.11039355
157	0x3d508130	0.050904453
158	0xbe424662	-0.18972161
159	0xbd4a23d8	-0.04935059
160	0x3dd253ca	0.10269888
161	0x3e0d8079	0.1381854
162	0xbdccd7a7	-0.1000207
163	0xbe368101	-0.17822649
164	0x3e0b5927	0.13608228
165	0x3d94788e	0.072495565
166	0xbe1af0c3	-0.15130906
167	0x3e4d4096	0.20044169
168	0x3d24e9c0	0.040261984
169	0x3dfda79b	0.12385484
170	0x3c84f6c1	0.016230943
171	0xbadbb1c2	-0.001676135
172	0xbe2fe33c	-0.17176527
173	0x3d13b913	0.036065172
174	0xbd68e7b2	-0.056861587
175	0x3dcb8d4f	0.09939062
176	0xbd317c20	-0.043331265
177	0xbcf605d7	-0.030032082
178	0xbe0ab707	-0.13546382
179	0xbdcf2efe	-0.10116385
180	0xbdd4f1b9	-0.103976674
181	0xbe017569	-0.12642445
182	0x3ddb22ca	0.10699995
183	0x3d051a2e	0.03249567
184	0x3e43eb8d	0.19132824
185	0xbde7fd6c	-0.11327633
186	0xbe368d5b	-0.1782736
187	0xbd4fa7d8	-0.050697178
188	0x3d80f332	0.06296386
189	0x3cc95aa8	0.024579361
190	0xbdc0977a	-0.09403892
191	0xbdc08807	-0.09400945
192	0xbe16b9ca	-0.1471931
193	0x3d83cf3c	0.06436011
194	0xbe0077b6	-0.12545666
195	0x3e407afd	0.18796916
196	0x3dcf0068	0.10107499
197	0x3dfd8888	0.12379557
198	0x3de2087a	0.11036773
199	0x3d9e39c3	0.07725861
200	0xbdef4cf7	-0.11684602
201	0xbe1742ef	-0.14771627
202	0x3dee2c92	0.11629595
203	0x3dccd316	0.10001199
204	0x3c485825	0.012228047
205	0x3e2228df	0.15835904
206	0x3d83dd3c	0.064386815
207	0x3c445693	0.0119835315
208	0xbe2f4c2f	-0.17118905
209	0x3dc4c5ca	0.09608038
210	0x3dc474c2	0.09592582
211	0x3e311837	0.17294393
212	0xbc2cc53b	-0.01054507
213	0xbdd5226d	-0.10406957
214	0xbdd9471d	-0.10609267
215	0x3d5c399c	0.053765878
216	0x3dbb67be	0.091506466
217	0xbe13efdd	-0.1444697
218	0xbe121f50	-0.14269757
219	0x3e0fe040	0.14050388
220	0x3e2f12ef	0.17097066
221	0xbe024134	-0.12720186
222	0xbb8697b2	-0.004107439
223	0x3e25213c	0.16125959
224	0xbdd01830	-0.101608634
225	0xbdc58878	-0.0964517
226	0x3d041b28	0.03225246
227	0xbe10eace	-0.14152071
228	0x3e3332d9	0.17499866
229	0xbbb2fd73	-0.0054623424
230	0xbde51e60	-0.11187434
231	0xbdd962d9	-0.10614557
232	0xbd75cd13	-0.060010027
233	0xbde121c0	-0.109927654
234	0xbd832e07	-0.064052634
235	0x3c636e8e	0.013881339
236	0xbe3f74ec	-0.18696946
237	0x3de7e0d6	0.11322181
238	0x3d05eca9	0.0326964
239	0xbd2772b7	-0.040880885
240	0xbd03f602	-0.032217033
241	0xbd884e9d	-0.06655619
242	0xbd46b733	-0.048514556
243	0x3cd5e19c	0.026108555
244	0xbda7c067	-0.08190995
245	0xbe347e3c	-0.1762628
246	0x3d512271	0.051058237
247	0xbdf40441	-0.11914874
248	0x3da0a6a5	0.07844285
249	0x3e03b210	0.12860894
250	0x3d6cc624	0.05780615
251	0xbe3fbfbf	-0.18725489
252	0xbdb4d164	-0.088290006
253	0x3e1ca23f	0.15296267
254	0xbe40e2ca	-0.18836513
255	0x3dc375be	0.09543942

bias f4 [64]
0	0x3c7c27bd	0.015390334
1	0x3c986bd6	0.018606108
2	0x3d6adb9a	0.057338335
3	0x3d1d70c3	0.038437616
4	0x3db3ea06	0.08784871
5	0xbdb85f72	-0.0900258
6	0x3dc3b47f	0.09555911
7	0x3cef0177	0.029175503
8	0x3d92c4b2	0.07166423
9	0xbc889c1b	-0.016676
10	0x3ddce6d9	0.10786218
11	0x3d122d2e	0.035687618
12	0xbd8578f6	-0.06517212
13	0xbde7689f	-0.11299252
14	0xbc704c72	-0.0146666635
15	0xbd2ba07c	-0.041901097
16	0x3dba4742	0.090956226
17	0x3d28369e	0.041067712
18	0xbdbadc00	-0.09123993
19	0xbd677708	-0.05651
20	0xbde06f39	-0.10958714
21	0x3d34d73a	0.04415057
22	0xbd12dc5c	-0.035854682
23	0x3d547f65	0.051879305
24	0xbd99d26d	-0.07510839
25	0xbc9a88b3	-0.018864011
26	0xbb2339d0	-0.0024906285
27	0x3db2f86b	0.08738788
28	0xbd24dcf5	-0.040249784
29	0xbd67b151	-0.056565586
30	0x3c21ffb6	0.009887626
31	0x3d854b1c	0.065084666
32	0x3c4894a0	0.012242466
33	0xbdb49d49	-0.08819062
34	0xbd37371e	-0.0447303
35	0x3b960715	0.004578481
36	0x3ca84609	0.020541208
37	0x3b3ef7c3	0.0029139377
38	0xbcb178d3	-0.021664059
39	0xbc6df41d	-0.014523533
40	0xbd3d09e3	-0.046152007
41	0x3c15c167	0.009140349
42	0xbbadc2a5	-0.0053027445
43	0x3b8e371f	0.004340067
44	0xbd76b4db	-0.06023107
45	0xbdaa6a78	-0.083210886
46	0x3d9fadc2	0.077968135
47	0x3becb94f	0.007224239
48	0x3c86eede	0.016471323
49	0x3d11eb4b	0.035624783
50	0xbd3f0c7e	-0.046642773
51	0x3c7ebda1	0.015548141
52	0x3b93a07b	0.0045052147
53	0xbd952cb3	-0.07283916
54	0x3da34c3d	0.07973526
55	0x3d9b99d9	0.075977035
56	0x3d851632	0.06498374
57	0x3d91e6c0	0.0712409
58	0xbd881509	-0.06644637
59	0x3d0ed747	0.034873273
60	0xbda3f9f1	-0.08006657
61	0xbd27bcc3	-0.0409515
62	0x3ca0533b	0.019570937
63	0x3c7f384f	0.01557739

weight f4 [128, 169]
0	0x3d980fcf	0.0742489
1	0xbda4418b	-0.08020314
2	0xbcad35d5	-0.021143833
3	0x3dcdbf74	0.100462824
4	0x3dae299a	0.085040286
5	0x3b8a58d1	0.0042220135
6	0xbd9277ac	-0.07151732
7	0xbe0e499c	-0.13895267
8	0x3d8701df	0.06592154
9	0xbd8e05c1	-0.06934691
10	0xbd8f7cf8	-0.07006258
11	0x3d7706b7	0.06030914
12	0x3cff28b3	0.031147337
13	0x3e2a7fad	0.16650267
14	0x3d77d476	0.060505353
15	0xbdc4fd0b	-0.096185766
16	0xbb1346b1	-0.0022472555
17	0xbe0cca7c	-0.13749117
18	0x3db93d5d	0.09044907
19	0x3d431fd5	0.04763778
20	0xbc7ccb55	-0.0154293375
21	0x3bfe822a	0.0077669816
22	0xbdd80f56	-0.105498
23	0xbca0cf81	-0.019630196
24	0x3d3fe1be	0.046846144
25	0xbdd792be	-0.10526036
26	0xbc2bafbf	-0.010478913
27	0xbd2dbe89	-0.042418037
28	0x3c3d212d	0.011543554
29	0xbc589491	-0.013219015
30	0x3d851b02	0.06499292
31	0x3e07cb72	0.13261202
32	0xbd09489d	-0.033516515
33	0xbd9cba70	-0.07652748
34	0xbd931c6f	-0.07183158
35	0x3d91d237	0.071201734
36	0xbc73bfc6	-0.014877265
37	0xbd7a35b0	-0.061086357
38	0xbd71a80e	-0.05899816
39	0xbdd1fd9e	-0.10253452
40	0x3df1a601	0.11799241
41	0xbd631503	-0.05543996
42	0xbd79014b	-0.06079225
43	0x3d38da99	0.045130346
44	0xbdca3b10	-0.098745465
45	0x3d75bfbb	0.0599973
46	0x3cc600e4	0.024170347
47	0x3d708319	0.058718774
48	0x3e346d33	0.17619781
49	0x3d86f9b5	0.065905966
50	0xbd8e19bc	-0.06938502
51	0x39f7121c	0.00047125004
52	0x3d372123	0.044709336
53	0xbbafdc6d	-0.005366853
54	0x3da9ed67	0.08297234
55	0x3d4b8f39	0.049697135
56	0x3db0bea8	0.08630115
57	0xbdb3dfa0	-0.087828875
58	0xbd628688	-0.05530408
59	0xbcff2117	-0.031143708
60	0xbc889605	-0.016673097
61	0x3e0aa47f	0.13539313
62	0xbcba8fc2	-0.022773627
63	0x3db7a501	0.08967019
64	0xbd7a61d5	-0.061128456
65	0x3d3de08e	0.04635673
66	0xbe03421f	-0.12818192
67	0xbe0129a1	-0.12613536
68	0xbdacda57	-0.084400825
69	0x3db7e0b0	0.089784026
70	0xbda1566e	-0.07877813
71	0x3ce3e469	0.027818875
72	0x3dbe5b53	0.092947625
73	0x3cfce88c	0.030872606
74	0xbe045731	-0.12923886
75	0xbbb06a9b	-0.005383802
76	0x3ddb94f3	0.10721769
77	0xbdfec473	-0.124398135
78	0xbd84eed7	-0.064908676
79	0x3c2e3b98	0.010634325
80	0xbcc52aff	-0.024068354
81	0xbd467c3b	-0.04845832
82	0x3dab1f5e	0.08355592
83	0xbc410cf5	-0.011782874
84	0x3d9f5f5f	0.077818625
85	0x3dee2180	0.11627483
86	0xbd0977ea	-0.033561625
87	0xbde9112c	-0.113802284
88	0xbe0dd228	-0.138497
89	0xbe115f6b	-0.14196555
90	0xbda8ab42	-0.0823579
91	0x3d30bd16	0.043149076
92	0xbcebe73c	-0.028796785
93	0xbaaf6541	-0.0013381616
94	0x3c5a279a	0.013315106
95	0xbce3f76d	-0.027827943
96	0xbaa207f3	-0.0012361988
97	0x3d9c2ef6	0.076261446
98	0xba89e65a	-0.0010520921
99	0xbdbcfa45	-0.092274226
100	0xbdede02f	-0.11615025
101	0xbe1d0e32	-0.15337446
102	0xbda3b041	-0.07992602
103	0x3c0bde1e	0.008536844
104	0xbd9129f4	-0.0708808
105	0x3db464ec	0.08808312
106	0xbd35b462	-0.04436148
107	0xbd4f10a9	-0.050552998
108	0x3d7e4315	0.062075693
109	0xbc2a30ac	-0.010387581
110	0xbb943c54	-0.0045237932
111	0xbdbc9424	-0.09207943
112	0xbdad3772	-0.08457841
113	0xbda0e601	-0.0785637
114	0xbc5ab780	-0.013349414
115	0x3e26d66c	0.16292733
116	0x3d113dd5	0.03545936
117	0xbc28f7eb	-0.0103130145
118	0xbd3c3d84	-0.045957103
119	0x3e004d7d	0.1252956
120	0xbdf1fdf6	-0.11816017
121	0x3d510201	0.0510273
122	0x3dcbb977	0.09947484
123	0x3db53ba3	0.088492654
124	0xbdac0387	-0.0839911
125	0x3b0c8970	0.0021444224
126	0xbd009249	-0.03138951
127	0xbdd09a50	-0.10185683
128	0xbd8082ab	-0.06274923
129	0xbdba38a0	-0.090928316
130	0xbdf370bf	-0.11886739
131	0xbe1ba069	-0.1519791
132	0x3da22b61	0.0791843
133	0xbd5bf962	-0.053704627
134	0xbd8e75fb	-0.06956097
135	0x3db03bec	0.08605179
136	0xbdb9688a	-0.09053142
137	0xbd777687	-0.06041577
138	0xbda687d6	-0.081313774
139	0x3e197980	0.14987755
140	0xbd36ab74	-0.044597104
141	0xbc9c6c29	-0.019094544
142	0x3d573330	0.05253905
143	0xbd752024	-0.059845105
144	0xbcad28ae	-0.021137562
145	0xbd14bc03	-0.036312114
146	0x3d448fbb	0.047988635
147	0x3e2de27c	0.16980928
148	0x3d843021	0.06454492
149	0x3db2c87e	0.08729647
150	0x3c57d0b5	0.013172318
151	0xbe0ce0b2	-0.1375759
152	0xbe02d499	-0.12776412
153	0x3dc42f47	0.0957933
154	0x3c889451	0.016672285
155	0xbd8fdb0f	-0.07024204
156	0xbdbd3238	-0.09238094
157	0x3b375a40	0.0027977377
158	0x3e115b7f	0.14195059
159	0x3e0b2647	0.1358882
160	0x3dd5d582	0.10441114
161	0x3de0ee92	0.10983004
162	0x3cf333c0	0.029687762
163	0xbd15ac66	-0.036541365
164	0x3dd52f98	0.104094684
165	0x3d39509c	0.04524289
166	0xbe0c530b	-0.13703553
167	0x3d61cbe0	0.05512607
168	0x3d8a7224	0.06760052
169	0xbe0489e6	-0.12943229
170	0x3d0a0b78	0.033702344
171	0xbd80f2eb	-0.06296333
172	0x3d0685a4	0.032842293
173	0xbce79e27	-0.028273655
174	0xbdfd97db	-0.1238248
175	0xba15f091	-0.0005719746
176	0x3c9e47ee	0.019321408
177	0xbdced41c	-0.100990504
178	0x3d0e7912	0.03478343
179	0xbd52e2c1	-0.05148578
180	0xbdf371f7	-0.118869714
181	0xbd256cf1	-0.040387098
182	0xbcad051b	-0.021120599
183	0x3de0b7bb	0.10972544
184	0x3dcf919e	0.10135196
185	0xbdb28814	-0.08717361
186	0x3bc3cfc5	0.005975696
187	0x3dd9ea97	0.106404476
188	0xbe09e676	-0.1346682
189	0xbccee862	-0.025257293
190	0x3d2eb921	0.04265702
191	0x3d6c99a5	0.057763714
192	0xbe02106c	-0.12701577
193	0x3d451bd0	0.048122227
194	0xbdf697ae	-0.12040649
195	0x3d795bc8	0.060878545
196	0xbd1828f6	-0.03714844
197	0xbdf515f8	-0.11967081
198	0xbd80946e	-0.06278311
199	0x3de6a843	0.11262562
200	0x3d1a3671	0.037649576
201	0xbdbf1304	-0.09329799
202	0xbdabe9b2	-0.08394183
203	0x3cb18a7f	0.021672485
204	0x3d9f8ee4	0.07790926
205	0x3d4361cf	0.0477007
206	0x3e067195	0.13129266
207	0xbcbcbf93	-0.023040568
208	0x3a3e9b19	0.0007271036
209	0xbc5204e7	-0.012818552
210	0x3e20377a	0.15646163
211	0xbcd84486	-0.026399862
212	0x3df08e61	0.117459066
213	0xbd81d5da	-0.06339617
214	0x3e0cfcfc	0.13768381
215	0x3dba954e	0.09110509
216	0x3b780082	0.00378421
217	0xbd8c693c	-0.06856009
218	0x3d9f1337	0.07767337
219	0x3e0f020b	0.13965623
220	0xbc112b58	-0.008860432
221	0xbd897943	-0.06712582
222	0x3d8022f3	0.06256666
223	0xbdf90863	-0.12159803
224	0xbd85e5cc	-0.06537971
225	0x3d7ccaf5	0.061716992
226	0x3e170273	0.14747028
227	0xbd7c75d2	-0.0616358
228	0xbd6f4b99	-0.058421705
229	0x3c53f1db	0.012936081
230	0x3d826ddb	0.063686095
231	0x3d3647f0	0.0445022
232	0x3ca340cd	0.01992836
233	0xbe0a617b	-0.13513748
234	0xbc15e545	-0.0091489
235	0x3c741dba	0.0148996655
236	0x3aa37794	0.001247155
237	0x3d724b6d	0.059153963
238	0x3b03e565	0.0020125743
239	0x3db26ffe	0.08712767
240	0x3da7b522	0.08188845
241	0x3e06a1a1	0.13147594
242	0x3da0b881	0.07847691
243	0xbd327416	-0.04356774
244	0x3e0e02b4	0.13868219
245	0x3c10af3d	0.008830843
246	0xbd6f8bc1	-0.05848289
247	0xbd9b9ab4	-0.07597867
248	0xbd770252	-0.060304947
249	0xbe0fa973	-0.14029483
250	0xbd09a151	-0.03360111
251	0xb9be4886	-0.00036293658
252	0xbde903c5	-0.11377672
253	0x3de7d7da	0.11320467
254	0xbdaff57e	-0.08591746
255	0x3cd082c1	0.025452973

bias f4 [128]
0	0x3cb84697	0.022494597
1	0xbc61452f	-0.013749405
2	0xbd0bd66d	-0.03414004
3	0x3b5edbb8	0.0034005474
4	0x3c54d4ed	0.012990219
5	0xbbc536ef	-0.0060185115
6	0x3cc676fd	0.02422666
7	0x3a91cf96	0.0011124488
8	0xbcca3f1b	-0.024688294
9	0xbd01ad42	-0.031659372
10	0x3b315442	0.0027058278
11	0xbd3dd64d	-0.04634695
12	0xbb850956	-0.004059951
13	0x3b7b8795	0.0038380374
14	0xbc7b1ad0	-0.015326217
15	0x3c7b7ba0	0.015349299
16	0x3c7190a8	0.014743961
17	0x3cf9c7a5	0.030490706
18	0xbc9012b5	-0.017587045
19	0x3c0e638a	0.008690724
20	0xbbcb336d	-0.006201199
21	0x3a6da6f3	0.000906571
22	0x3c9bcdd7	0.01901905
23	0x3bb82131	0.005619191
24	0x3c53ada1	0.012919814
25	0xbcf50d0e	-0.029913452
26	0x3c18973a	0.009313399
27	0xbb9e02bf	-0.0048221047
28	0xbc3be35b	-0.01146778
29	0x3c8c865c	0.017153911
30	0xbc1457ac	-0.009054106
31	0xbc3c456c	-0.011491161
32	0xbcabb395	-0.020959655
33	0xbd1615d8	-0.036641926
34	0x3be6a325	0.0070384913
35	0xbb9369e1	-0.0044987057
36	0x3c371445	0.011174266
37	0x3b426683	0.0029663153
38	0xbb40393b	-0.0029330987
39	0xbc82c8af	-0.015964834
40	0xbbc5a739	-0.0060318974
41	0xbcf16147	-0.02946533
42	0xbb5a97fd	-0.0033354752
43	0x3c363db5	0.011123111
44	0x3c9bfa99	0.019040393
45	0x3c436b11	0.011927382
46	0xbacce7b8	-0.0015633022
47	0xbca280c4	-0.01983679
48	0x3d4e70ae	0.05040043
49	0x3bc9bdb8	0.0061566494
50	0xbcb323c8	-0.021867648
51	0x391cd93c	0.00014958245
52	0x3b5d1455	0.0033734043
53	0xbd2bede2	-0.04197491
54	0x3c05574a	0.008138487
55	0xbb57d989	-0.0032936058
56	0xbb0b2c75	-0.0021236215
57	0x3ba96ee6	0.005170691
58	0x3c471af6	0.012152424
59	0x3d8223b2	0.063544646
60	0xbc81f7ee	-0.015865292
61	0x3bdac571	0.006676369
62	0x3a6906e6	0.00088892726
63	0xbb9c7e5c	-0.0047758054
64	0xbbed3afe	-0.0072396984
65	0xbc21bf7e	-0.009872315
66	0x3b99b787	0.0046910676
67	0x3c7c6eb7	0.015407256
68	0x3d27f5da	0.041005947
69	0x3c1eb068	0.009685613
70	0x3c39c721	0.01133898
71	0x3ba3b86a	0.004996349
72	0x3ba9d754	0.00518314
73	0xb9168ab4	-0.00014356786
74	0xbd10f75f	-0.03539216
75	0xbbd6c4f8	-0.006554242
76	0x3c66251c	0.0140469335
77	0xbbb6c4b4	-0.005577648
78	0xbc535b74	-0.012900222
79	0x3c96dc93	0.018415725
80	0x3b82ce9a	0.003991914
81	0xbc2bb646	-0.010480469
82	0x3bcfa509	0.0063368124
83	0xbb1231b0	-0.0022307448
84	0xba8acfd3	-0.0010590501
85	0x3b4224ba	0.0029623942
86	0x3ca5c796	0.020236772
87	0x3cb9874d	0.022647524
88	0xbce9ebb1	-0.02855477
89	0xbcd5b13f	-0.026085494
90	0xbc345a60	-0.011007875
91	0x3d0aebae	0.033916168
92	0xbc2da397	-0.010598085
93	0x3c50712d	0.012722296
94	0xbc91f588	-0.017817274
95	0x3aa887ce	0.0012857856
96	0x3c305ff0	0.010765061
97	0xbc31bef9	-0.010848754
98	0x3bc44e1b	0.005990756
99	0x3d0645d6	0.032781444
100	0x3c9f0d94	0.019415654
101	0x3d5fd83f	0.054649588
102	0xbb3ef215	-0.0029135991
103	0xbc8440dd	-0.01614421
104	0x3d27bb39	0.040950034
105	0xba974c77	-0.0011543174
106	0x3639214c	2.758653e-06
107	0xbb83325e	-0.004003807
108	0x3b004d7a	0.001957743
109	0xbc801fa3	-0.015640086
110	0x3d0caeaa	0.03434626
111	0xbc009904	-0.007848982
112	0x3d1771ff	0.03697395
113	0x3b66d0ae	0.0035219598
114	0x3c4c39bf	0.01246494
115	0xbbd78dda	-0.0065781893
116	0xbb9a62a8	-0.004711468
117	0xbafd0de7	-0.0019306511
118	0xbca89733	-0.02057991
119	0x3c8aaf51	0.0169293
120	0x3b0a3d0b	0.0021093513
121	0x3b649834	0.003488076
122	0xbc050191	-0.008118049
123	0xba1ff6f1	-0.0006102166
124	0xbbe51f67	-0.006992269
125	0x3c3de5cb	0.011590431
126	0xbc832965	-0.01601095
127	0x3bc0f5d7	0.0058886814

weight f4 [128]
0	0x3f84b7f9	1.0368644
1	0x3f835e63	1.026318
2	0x3f850d4c	1.0394683
3	0x3f801399	1.0005981
4	0x3f804922	1.0022318
5	0x3f873568	1.0563173
6	0x3f7c2846	0.9849895
7	0x3f823f85	1.0175635
8	0x3f7f3827	0.99695057
9	0x3f813798	1.0095091
10	0x3f81acc1	1.0130845
11	0x3f83aee1	1.0287744
12	0x3f7dd6e5	0.9915603
13	0x3f82fb67	1.0232972
14	0x3f802173	1.0010208
15	0x3f831453	1.0240577
16	0x3f881a7a	1.063308
17	0x3f7da4cb	0.9907958
18	0x3f8470ce	1.0346925
19	0x3f81067e	1.0080106
20	0x3f82cd41	1.0218889
21	0x3f7f845a	0.9981133
22	0x3f792646	0.97324026
23	0x3f7fd8fd	0.9994047
24	0x3f832b2c	1.024755
25	0x3f85d211	1.0454732
26	0x3f828de5	1.0199553
27	0x3f824790	1.0178089
28	0x3f82610f	1.018587
29	0x3f83ef59	1.0307418
30	0x3f7fd130	0.9992857
31	0x3f7e1e2f	0.99264807
32	0x3f7cd8b4	0.9876816
33	0x3f8742b9	1.0567237
34	0x3f84df87	1.0380715
35	0x3f7c5933	0.9857361
36	0x3f80ff66	1.0077941
37	0x3f804ea8	1.0024004
38	0x3f7c4167	0.98537296
39	0x3f81d089	1.0141765
40	0x3f83510a	1.0259106
41	0x3f803544	1.0016255
42	0x3f8200dc	1.0156512
43	0x3f81d52f	1.0143183
44	0x3f819c24	1.0125775
45	0x3f82d10d	1.0220047
46	0x3f837e1e	1.0272863
47	0x3f81eab9	1.0149757
48	0x3f83e373	1.0303787
49	0x3f7fd559	0.9993492
50	0x3f83fedc	1.0312152
51	0x3f8171c9	1.011285
52	0x3f872d9c	1.0560794
53	0x3f851365	1.0396544
54	0x3f85104b	1.0395597
55	0x3f827188	1.0190897
56	0x3f81eb02	1.0149844
57	0x3f80b18f	1.0054187
58	0x3f80fcbf	1.0077132
59	0x3f8746c2	1.0568469
60	0x3f829c74	1.0203996
61	0x3f779de6	0.9672531
62	0x3f80dafd	1.006683
63	0x3f7cf811	0.9881602
64	0x3f809e1f	1.0048255
65	0x3f8040a7	1.001973
66	0x3f809930	1.0046749
67	0x3f84a748	1.036355
68	0x3f8788ae	1.0588586
69	0x3f7e691e	0.99379146
70	0x3f829cb8	1.0204077
71	0x3f7bfeb7	0.9843554
72	0x3f7dffc6	0.99218404
73	0x3f81cbb7	1.0140294
74	0x3f7dd763	0.9915678
75	0x3f825478	1.0182028
76	0x3f7abfd0	0.9794893
77	0x3f7db9da	0.9911171
78	0x3f86386f	1.0485972
79	0x3f80b121	1.0054055
80	0x3f7a9a10	0.9789133
81	0x3f7c6983	0.985985
82	0x3f7c7bc0	0.9862633
83	0x3f7806ba	0.96885264
84	0x3f7eac1a	0.99481356
85	0x3f797545	0.97444564
86	0x3f836090	1.0263844
87	0x3f839cf3	1.0282272
88	0x3f82ce71	1.0219251
89	0x3f82da42	1.0222857
90	0x3f80da38	1.0066595
91	0x3f7bbc3e	0.9833411
92	0x3f7e1564	0.9925139
93	0x3f8023c2	1.0010912
94	0x3f74a7e2	0.9556867
95	0x3f82dc99	1.0223571
96	0x3f80cea2	1.0063059
97	0x3f8164e5	1.0108916
98	0x3f7d9e83	0.99069995
99	0x3f83bbf0	1.0291729
100	0x3f7d1bf4	0.9887078
101	0x3f8277bd	1.0192791
102	0x3f8061fd	1.0029904
103	0x3f7e7a18	0.9940505
104	0x3f808f16	1.0043666
105	0x3f82fed9	1.0234023
106	0x3f7c9715	0.9866803
107	0x3f760c04	0.96112084
108	0x3f82a4df	1.0206565
109	0x3f82d1ca	1.0220273
110	0x3f77d712	0.96812546
111	0x3f839219	1.027896
112	0x3f8102cc	1.0078979
113	0x3f7a4a5f	0.9776973
114	0x3f84216c	1.03227
115	0x3f7e0be7	0.9923691
116	0x3f816bda	1.0111039
117	0x3f803e11	1.0018941
118	0x3f7a394c	0.9774368
119	0x3f81adfd	1.0131222
120	0x3f801e85	1.0009314
121	0x3f800010	1.0000019
122	0x3f7d638f	0.9898004
123	0x3f80e4a0	1.0069771
124	0x3f7fbfbd	0.99901944
125	0x3f867917	1.0505704
126	0x3f84cb38	1.0374517
127	0x3f809a0a	1.0047009

bias f4 [128]
0	0x3ca6e9b9	0.02037512
1	0xbccb45c3	-0.024813538
2	0xbc31f300	-0.010861158
3	0x3a1aef1f	0.00059102656
4	0xbc87934d	-0.01654973
5	0xbbf4c296	-0.0074694855
6	0x3cc1faaa	0.023679096
7	0xbc06b1fe	-0.008221148
8	0x3c870dd5	0.016486088
9	0xbcbe177f	-0.023204563
10	0xbca58993	-0.020207202
11	0x3ba1610d	0.0049248994
12	0x3cb5a5bc	0.022173755
13	0xbc1dfa1a	-0.009642148
14	0xbc979693	-0.018504417
15	0xba80faba	-0.0009840347
16	0xbb15eed9	-0.002287796
17	0x3c4f00cf	0.01263447
18	0xbc2fdf05	-0.010734324
19	0xbaeb4340	-0.0017949119
20	0x3d127512	0.03575618
21	0xbc3012a1	-0.010746629
22	0x3ca10ac3	0.019658452
23	0xbaec9e39	-0.0018052525
24	0x3bb0bc25	0.0053935223
25	0xbb9fe9b0	-0.0048801526
26	0x3be3619f	0.0069391276
27	0xbb64791a	-0.0034862221
28	0x3c303600	0.010755062
29	0x389e9122	7.56106e-05
30	0x3c3a3e70	0.011367425
31	0x3c52657f	0.012841581
32	0x3c79c086	0.015243655
33	0xbc8f3e81	-0.017485859
34	0xbca364c1	-0.019945504
35	0x3c9b677f	0.01897025
36	0xbaddafa5	-0.0016913308
37	0x3c04a01a	0.008094812
38	0x3cba013f	0.022705672
39	0xbc813ae3	-0.01577515
40	0x3c9522ea	0.018205125
41	0xbc40aff6	-0.011760702
42	0x3c970749	0.018436091
43	0x3cfce0db	0.030868938
44	0xbc3488d6	-0.011018952
45	0xbc21f955	-0.009886106
46	0x3aa6077d	0.0012667027
47	0x3c99beb6	0.018767696
48	0xbc785691	-0.015157358
49	0x3c0bf5dd	0.008542505
50	0xbcc31e0b	-0.023818037
51	0xbc0f3762	-0.008741232
52	0xbc4e39b4	-0.012587
53	0xbcc4ea00	-0.024037361
54	0x3909677d	0.0001310389
55	0x3ca9211b	0.020645669
56	0xbb8e6d45	-0.004346522
57	0x3d09dcc4	0.033657804
58	0xbbdea47b	-0.00679451
59	0xbc787c9d	-0.015166429
60	0xbc8a824a	-0.01690783
61	0x3cfcba87	0.030850662
62	0x3a1271bb	0.0005586405
63	0x3cba06ef	0.022708384
64	0x3bb9a71f	0.0056656743
65	0x3b803e1b	0.0039136535
66	0x3b7317ea	0.0037093111
67	0xbca17db8	-0.019713268
68	0xbda4c861	-0.08046032
69	0xb983c843	-0.00025135474
70	0xbc175f31	-0.009239004
71	0x3c918426	0.017763209
72	0x3be70d5f	0.0070511545
73	0xbc09ee45	-0.008418624
74	0x3c9852d7	0.018594189
75	0xbc83827d	-0.016053433
76	0x3c8e3235	0.017357925
77	0xbb22678f	-0.0024780964
78	0xbd8c7147	-0.068575434
79	0xb9a37e4c	-0.0003118388
80	0x3b9b7d4b	0.0047451607
81	0x3bebe0dc	0.007198436
82	0x3b85b40c	0.004080301
83	0x3c5c0c19	0.013430619
84	0x3b98539f	0.0046486403
85	0x3ce6e426	0.028184962
86	0xbc75ec0a	-0.015009889
87	0xbcef6a7a	-0.029225577
88	0xbc5b0642	-0.013368191
89	0xbcd63890	-0.026150018
90	0x3b645bc6	0.003484474
91	0x3c628c00	0.013827324
92	0x3c4cdc26	0.012503659
93	0xbb032c81	-0.002001554
94	0x3d7cb78b	0.061698478
95	0x3b7a5455	0.0038197238
96	0xbbeb0be3	-0.007173048
97	0xbbef289a	-0.0072985413
98	0x3952c6e9	0.0002010126
99	0xbca7c9bf	-0.020481942
100	0x3bcd4d8b	0.0062653474
101	0x3bf99310	0.007616408
102	0x3b6fd512	0.0036595506
103	0x3b953620	0.0045535713
104	0x3c4d7136	0.012539199
105	0xbc900653	-0.01758114
106	0x3c458ef3	0.0120580075
107	0x3d4a6c57	0.049419727
108	0xbc5684af	-0.013093158
109	0xbd27584a	-0.040855683
110	0x3d436019	0.047699068
111	0xbc4e3c3f	-0.012587606
112	0xbc0f2d20	-0.008738786
113	0x3d1a140e	0.037616782
114	0xbd4f5138	-0.050614566
115	0x3bbc584c	0.0057478305
116	0xbc522bcc	-0.012827825
117	0xbc1a8c02	-0.0094327945
118	0x3c07fdef	0.008300289
119	0x3bea1e59	0.007144731
120	0x3c3aaae8	0.011393286
121	0x3c242077	0.010017506
122	0x3c77f342	0.015133681
123	0xbc517f5c	-0.0127867125
124	0x3c4acf72	0.01237856
125	0xbd90ec3b	-0.070763074
126	0xbced9f1a	-0.02900653
127	0xbbd2c118	-0.00643171

running_mean f4 [128]
0	0xbe06fc8b	-0.13182275
1	0x3c2ebd2e	0.010665221
2	0xbeacaaf1	-0.33724168
3	0xbe4f65c0	-0.20253658
4	0x3e82e64a	0.25566322
5	0xbd86b859	-0.0657813
6	0xbe4d2e31	-0.20037152
7	0x3eb33c96	0.3500716
8	0xbd114ccb	-0.035473626
9	0xbc8ee549	-0.017443316
10	0x3f1de5bb	0.61678666
11	0xbe0bca73	-0.13651447
12	0x3d886a26	0.06660871
13	0xbd2c1a6d	-0.04201739
14	0x3e9abaa0	0.3022051
15	0x3df01ebc	0.11724612
16	0x3e92c656	0.28666943
17	0x3e3a8043	0.1821299
18	0xbe91538a	-0.28384048
19	0x3edd0207	0.4316561
20	0xbdc16685	-0.09443382
21	0x3f0721fa	0.5278622
22	0x3d401c0d	0.04690175
23	0xbcd59013	-0.026069677
24	0x3d12ed19	0.035870645
25	0xbeb71773	-0.35760078
26	0xbc81d561	-0.015848817
27	0x3ed55926	0.41669577
28	0xbc37dd7b	-0.011222239
29	0x3ddfc596	0.109263584
30	0xbe1e71c2	-0.15473083
31	0xbd90ac05	-0.0706406
32	0xbdbc7c0d	-0.09203348
33	0xbe41ce5e	-0.18926379
34	0xbe4c3bd9	-0.19944705
35	0xbd116ea8	-0.03550592
36	0xbec83873	-0.39105567
37	0xbeb71fac	-0.3576635
38	0xbe99e1f7	-0.3005521
39	0x3f1da8de	0.61585796
40	0xbe15f2d6	-0.14643416
41	0xbbf8a594	-0.007588098
42	0x3f18ced3	0.5969059
43	0x3e1e4ec9	0.15459742
44	0x3de335af	0.11094224
45	0xbd4c8aaa	-0.049936928
46	0x3de4f16f	0.11178862
47	0xbeea7bb1	-0.45797494
48	0x3ed924fc	0.4241103
49	0x3e47cea2	0.19512418
50	0xbf1d78d3	-0.6151249
51	0x3dbead1c	0.09310362
52	0x3e1c953a	0.152913
53	0x3e78870f	0.24270271
54	0x3e91dc52	0.28488404
55	0xbe995b8a	-0.2995265
56	0xbd0f7739	-0.03502581
57	0x3d0d7039	0.034530852
58	0xba0ea463	-0.00054413656
59	0x3e843907	0.25824758
60	0xbdbb6ecc	-0.09151992
61	0xbe0eb6bf	-0.139369
62	0xbbd2a9ef	-0.006428949
63	0xbdecf56d	-0.11570249
64	0xbec6ae63	-0.38804922
65	0x3e9021ad	0.28150693
66	0x3e1712cc	0.14753264
67	0x3eb379ab	0.35053763
68	0x3ef39206	0.47572345
69	0xbeb50729	-0.35357025
70	0x3f0eca44	0.5577738
71	0x3e3dc333	0.18531494
72	0x3ddc3e5f	0.10754084
73	0xbe83b365	-0.25722805
74	0x3eac9cf9	0.3371351
75	0xbe458eba	-0.19292727
76	0x3eb4d917	0.35321876
77	0xbdf30016	-0.11865251
78	0xbc2d7103	-0.010586026
79	0xbcd464e0	-0.025927007
80	0xbf44b7b2	-0.76842797
81	0x3e580649	0.21096148
82	0x3e5d912d	0.21637411
83	0x3e505743	0.20345788
84	0x3d947f54	0.072508484
85	0x3d5da0a7	0.05410829
86	0x3ec27383	0.37978753
87	0x3efc6151	0.49292997
88	0xbf1afad9	-0.60539013
89	0xbe6ff7ec	-0.23434418
90	0x3f3dbbd9	0.7411476
91	0xbdb620fe	-0.088930115
92	0xbc5298c4	-0.012853805
93	0x3e37587c	0.17904848
94	0x3e8cbd69	0.27488258
95	0xbe5518dc	-0.20810264
96	0x3e38b5c9	0.18038096
97	0xbed496bf	-0.4152126
98	0xbc08e827	-0.008356131
99	0xbd8426f4	-0.06452742
100	0xbf1ce5a5	-0.6128791
101	0x3e1eb51a	0.15498772
102	0x3e710912	0.23538616
103	0x3e783eff	0.24242781
104	0xbd51d46c	-0.051227972
105	0xbe914200	-0.28370667
106	0x3e8e9654	0.27849066
107	0x3f019a22	0.50625813
108	0x3d424e4e	0.04743796
109	0xbe0abb65	-0.13548048
110	0xbe8a0eda	-0.26964456
111	0xbc4d4324	-0.012528215
112	0x3f064b76	0.52458894
113	0xbe36fa2c	-0.1786887
114	0xbeadf970	-0.33979368
115	0xbe8c2550	-0.27372217
116	0xbf1005c6	-0.5625881
117	0xbcbc0158	-0.02294986
118	0xbaabf105	-0.0013118094
119	0xbe320da8	-0.17388022
120	0xbea314bd	-0.3185176
121	0x3d77edeb	0.06052963
122	0xbe9782ee	-0.2959208
123	0xbe87bf25	-0.2651302
124	0xbf3ab670	-0.7293463
125	0x3de0e9cb	0.109820925
126	0xbe07a8e9	-0.13248028
127	0x3eb487bf	0.35259816

running_var f4 [128]
0	0x3e0a6914	0.13516647
1	0x3d8be9a1	0.068316706
2	0x3d104e31	0.03523082
3	0x3da31cbc	0.07964465
4	0x3da9054e	0.08252965
5	0x3db56ff1	0.08859242
6	0x3d5f1410	0.054462492
7	0x3e05bc85	0.13060196
8	0x3e06a9e0	0.1315074
9	0x3d9a292d	0.07527385
10	0x3df85cf4	0.121271044
11	0x3dc33fc8	0.0953365
12	0x3d21ce3f	0.039503332
13	0x3db59d84	0.08867934
14	0x3e255530	0.16145778
15	0x3dc3449b	0.0953457
16	0x3d7770b5	0.06041022
17	0x3d27be12	0.04095275
18	0x3d2c9976	0.04213854
19	0x3e028186	0.12744722
20	0x3d33854f	0.043828305
21	0x3dff1fe5	0.12457255
22	0x3dd63fe3	0.10461404
23	0x3d066990	0.032815516
24	0x3dabfe6b	0.08398136
25	0x3d5266ca	0.05136756
26	0x3d8dc3b8	0.06922096
27	0x3d2dadf3	0.04240222
28	0x3d6f929b	0.058489423
29	0x3d8469e7	0.06465512
30	0x3d629a59	0.05532298
31	0x3d80ef39	0.06295628
32	0x3dc9e072	0.09857263
33	0x3d61a266	0.055086516
34	0x3d551d0a	0.052029647
35	0x3d828ab3	0.06374111
36	0x3db2159e	0.086955294
37	0x3d9e7802	0.077377334
38	0x3d8b3836	0.06797831
39	0x3dd8dae7	0.10588627
40	0x3dbf233d	0.09332893
41	0x3dd53a22	0.104114786
42	0x3db582bf	0.088628285
43	0x3df6c24f	0.1204878
44	0x3d1125cc	0.035436437
45	0x3df7a161	0.120913275
46	0x3d91f5a6	0.07126932
47	0x3dc9e777	0.098586015
48	0x3d51de61	0.051237468
49	0x3e2f6b33	0.17130737
50	0x3e0385f7	0.12844072
51	0x3d373f5d	0.044738162
52	0x3d3a529b	0.045488935
53	0x3e54f61e	0.20797011
54	0x3dd4019d	0.1035187
55	0x3d5ec122	0.054383405
56	0x3d95c127	0.073122315
57	0x3d1ce8c7	0.03830793
58	0x3e047bc1	0.12937833
59	0x3d53ef50	0.051741898
60	0x3dc5a566	0.09650688
61	0x3d6ce47a	0.05783508
62	0x3d4b5c84	0.049648777
63	0x3da8ce7d	0.082425095
64	0x3dcf9bd2	0.10137142
65	0x3d7ea445	0.06216838
66	0x3e066682	0.13125041
67	0x3d81b838	0.06333965
68	0x3da343c1	0.079719074
69	0x3e154027	0.14575253
70	0x3dd5697f	0.104205124
71	0x3de3bda3	0.11120155
72	0x3d38c12c	0.045106098
73	0x3d32e6ee	0.043677263
74	0x3d93b591	0.072123654
75	0x3dd37fa7	0.10327082
76	0x3e0e7f7d	0.1391582
77	0x3d61072f	0.05493849
78	0x3e02bc66	0.12767181
79	0x3d849b05	0.0647488
80	0x3e320aaa	0.1738688
81	0x3da6830a	0.081304625
82	0x3d9a7124	0.07541111
83	0x3d98700e	0.07443248
84	0x3dee9e7f	0.116513245
85	0x3d95df82	0.07318021
86	0x3e0696a3	0.13143401
87	0x3dface45	0.12246374
88	0x3da147fd	0.07875059
89	0x3da08bff	0.07839202
90	0x3e10c099	0.1413597
91	0x3e0dcd9f	0.1384797
92	0x3d8d4c8c	0.06899366
93	0x3d15f622	0.036611684
94	0x3d8978f2	0.067125216
95	0x3dda10d2	0.106477395
96	0x3dd4e6f4	0.10395613
97	0x3d9ea971	0.07747162
98	0x3db0cdb2	0.08632983
99	0x3da364fa	0.07978244
100	0x3e1c5750	0.15267682
101	0x3d8216bd	0.06351993
102	0x3d8dfd24	0.06933048
103	0x3db47976	0.08812229
104	0x3db73abc	0.089467496
105	0x3db081a5	0.08618478
106	0x3dd93d3f	0.10607385
107	0x3dff138e	0.12454902
108	0x3d8665df	0.06562399
109	0x3e071106	0.13190088
110	0x3dc51371	0.09622849
111	0x3cf3fc91	0.029783519
112	0x3d88acfa	0.06673618
113	0x3db3e98e	0.087847814
114	0x3d5fee09	0.054670367
115	0x3def27f8	0.11677545
116	0x3d663123	0.056199204
117	0x3e259563	0.16170268
118	0x3d8c6c9d	0.06856654
119	0x3d7cfb7a	0.061763264
120	0x3dbca05e	0.09210275
121	0x3d9bbc4a	0.07604273
122	0x3e185404	0.148758
123	0x3daeef73	0.08541765
124	0x3e0a73c4	0.13520724
125	0x3dd992be	0.10623692
126	0x3df1286b	0.11775287
127	0x3d5017f3	0.05080409

weight f4 [64]
0	0x3f7c58e2	0.98573124
1	0x3f82cd83	1.0218967
2	0x3f8118eb	1.0085729
3	0x3f803617	1.0016507
4	0x3f8100a2	1.0078318
5	0x3f8096f8	1.0046072
6	0x3f80c302	1.0059512
7	0x3f7d7673	0.99008864
8	0x3f835529	1.0260364
9	0x3f801855	1.0007426
10	0x3f7d39e9	0.9891649
11	0x3f7dd040	0.9914589
12	0x3f7c5d1b	0.9857957
13	0x3f819fcd	1.0126892
14	0x3f80428f	1.0020312
15	0x3f7e7464	0.9939635
16	0x3f7d69b7	0.98989433
17	0x3f7d778c	0.9901054
18	0x3f8169e0	1.0110435
19	0x3f7e81f8	0.99417067
20	0x3f7f58fc	0.99745154
21	0x3f77a762	0.9673978
22	0x3f7bd6e9	0.983748
23	0x3f80537e	1.002548
24	0x3f7e4e14	0.9933789
25	0x3f83e726	1.0304916
26	0x3f80fd1c	1.0077243
27	0x3f818978	1.0120077
28	0x3f771c2e	0.96527374
29	0x3f831fa1	1.0244027
30	0x3f7fd8d0	0.99940205
31	0x3f7920a6	0.9731544
32	0x3f7a315c	0.97731566
33	0x3f80fd0e	1.0077226
34	0x3f7a2a88	0.9772115
35	0x3f7d0cab	0.98847455
36	0x3f7bdcd6	0.98383844
37	0x3f808ed6	1.004359
38	0x3f7bcb8c	0.9835746
39	0x3f81945a	1.0123398
40	0x3f73e22a	0.95266974
41	0x3f82b0d5	1.0210215
42	0x3f7bda29	0.9837976
43	0x3f7bf145	0.98415023
44	0x3f7f3468	0.9968934
45	0x3f86bedb	1.0526994
46	0x3f775974	0.9662087
47	0x3f803903	1.0017399
48	0x3f82d02c	1.0219779
49	0x3f7357a9	0.95055634
50	0x3f82fef4	1.0234056
51	0x3f81138b	1.0084089
52	0x3f809fde	1.0048788
53	0x3f815563	1.0104183
54	0x3f810882	1.0080721
55	0x3f8046b0	1.0021572
56	0x3f81f191	1.0151845
57	0x3f7e600c	0.99365306
58	0x3f8000a4	1.0000196
59	0x3f80bb72	1.0057204
60	0x3f7ac97d	0.97963697
61	0x3f855726	1.041722
62	0x3f7fca0a	0.9991766
63	0x3f7ee20f	0.9956369

bias f4 [64]
0	0xbc69ecff	-0.014277696
1	0xbbfd5e15	-0.0077321627
2	0x3c0ef048	0.00872428
3	0xbce491e0	-0.02790159
4	0xbc81112a	-0.015755255
5	0xbcb4fabc	-0.022092216
6	0xba969be8	-0.0011490555
7	0xbccd1017	-0.025032086
8	0x3a8473b9	0.0010105289
9	0xbc9f0c91	-0.019415172
10	0x3bfb14eb	0.0076624057
11	0xbc704f73	-0.01466738
12	0xbc0f61d8	-0.008751355
13	0xbcbb3f69	-0.022857385
14	0xbcd4e2fd	-0.025987143
15	0xbcd5f8f2	-0.026119683
16	0xbc37ec13	-0.011225718
17	0x3ba4e329	0.0050319624
18	0x3c321df8	0.010871403
19	0xbbc93d4e	-0.0061413413
20	0xbc8058ce	-0.015667345
21	0xbc850f58	-0.016242668
22	0xbce312de	-0.027718958
23	0xbc22f387	-0.009945757
24	0xbc98d23f	-0.01865494
25	0x3a85b878	0.0010202071
26	0x3c16bfb0	0.009200975
27	0x3cafe367	0.021470739
28	0xbce6f97b	-0.028195133
29	0x3c8dc217	0.017304463
30	0xbb8896b2	-0.004168355
31	0xbcacad32	-0.02107868
32	0xbcb329cd	-0.021870518
33	0x3c4ce63b	0.012506063
34	0xbc9ed39c	-0.019388013
35	0xbcd09adb	-0.025464466
36	0xbd1d14aa	-0.038349785
37	0xbbb2c58d	-0.005455679
38	0xbb6464d2	-0.0034850133
39	0xbc58c133	-0.013229656
40	0xbd364875	-0.044502694
41	0xba2097e1	-0.00061261473
42	0xbc52d121	-0.012867243
43	0xbc9b9b33	-0.018994903
44	0xbbd7bf2a	-0.006584068
45	0x3ca8938a	0.020578165
46	0xba93e022	-0.0011282007
47	0xbc299bb9	-0.010352069
48	0x3c07bbb5	0.008284499
49	0xbd452cf9	-0.048138592
50	0xbc879fe3	-0.016555732
51	0x3a4668e0	0.0007568728
52	0xbcd254f1	-0.025675269
53	0x3be4e28f	0.0069850157
54	0x3cd09da4	0.025465794
55	0x3c48b03b	0.012249048
56	0x3a2751cb	0.00063827325
57	0x3cb5dd47	0.02220024
58	0x3bcc0f81	0.006227434
59	0xbd0e8aae	-0.034800224
60	0xbca8c661	-0.020602407
61	0x3cffccca	0.03122558
62	0xbb531e54	-0.0032214122
63	0xbb50d7e0	-0.0031866953

running_mean f4 [64]
0	0x40b0da70	5.5266647
1	0x40a2cb52	5.0873194
2	0x40925c15	4.5737405
3	0x40a21030	5.064476
4	0x40ae5f7d	5.4491563
5	0x40b2dffe	5.589843
6	0x40996dd6	4.7946577
7	0x40b7b497	5.7407947
8	0x40a89976	5.268733
9	0x40a1326a	5.037404
10	0x40b167e4	5.543932
11	0x40ac0a16	5.376231
12	0x40a075e7	5.0143924
13	0x409d75b1	4.9206166
14	0x409527ba	4.6610994
15	0x409dd182	4.9318247
16	0x409df74f	4.936439
17	0x4099d2b7	4.806972
18	0x4097406a	4.726613
19	0x40adbc42	5.4292307
20	0x40b27c34	5.5776615
21	0x40ad8f8c	5.423773
22	0x4090a02b	4.5195518
23	0x4093c475	4.6177316
24	0x40b088d1	5.516701
25	0x4097f3da	4.748517
26	0x40a44516	5.1334333
27	0x40a87264	5.2639637
28	0x40a54241	5.1643376
29	0x409aab70	4.8334274
30	0x40ae38e2	5.4444437
31	0x40a99c1c	5.3003063
32	0x40aa0b73	5.3138976
33	0x4099376a	4.7880144
34	0x40a8d7c3	5.276338
35	0x40a1a3a8	5.0512276
36	0x40af9d90	5.4879837
37	0x409688a1	4.7041783
38	0x40918b37	4.548244
39	0x40a08fa1	5.017533
40	0x40b34bb0	5.602989
41	0x408def51	4.4354634
42	0x40b80f8d	5.7518983
43	0x40b95b80	5.7924194
44	0x40b34916	5.6026716
45	0x408cfa16	4.405528
46	0x40a0d5df	5.0261073
47	0x40a28d7e	5.079772
48	0x40a88529	5.266255
49	0x408c7fc5	4.390597
50	0x40a37d5d	5.109053
51	0x40a57628	5.1706734
52	0x409fcf20	4.994034
53	0x40ae6f38	5.4510765
54	0x40a15150	5.041176
55	0x40aafe62	5.3435526
56	0x40a84a1c	5.2590466
57	0x40a2fcaf	5.093345
58	0x40b9e8dc	5.809675
59	0x40a03e9e	5.0076437
60	0x40b16364	5.5433826
61	0x40873e49	4.226353
62	0x40a4764a	5.1394396
63	0x4085e3ee	4.1840734

running_var f4 [64]
0	0x41dedbd9	27.857347
1	0x40a39155	5.1114907
2	0x407466b1	3.8187678
3	0x40fddceb	7.9332175
4	0x41002592	8.009172
5	0x419bd1ca	19.477436
6	0x40817050	4.04496
7	0x4081ab2f	4.0521464
8	0x40a14276	5.039363
9	0x40bddcb4	5.9331913
10	0x4132a353	11.164874
11	0x4075445d	3.8322976
12	0x40bf65a7	5.9811587
13	0x41945286	18.540295
14	0x4125091d	10.314725
15	0x416b58c3	14.70917
16	0x418d7151	17.68033
17	0x40932518	4.598278
18	0x4102244b	8.133861
19	0x40ba97f6	5.83105
20	0x415b4eff	13.706786
21	0x41248b59	10.28402
22	0x4041e187	3.02939
23	0x409c6399	4.887158
24	0x40bf1fde	5.97264
25	0x4105fb06	8.373785
26	0x4100db51	8.053544
27	0x40efebcf	7.497535
28	0x41a3cfa4	20.476387
29	0x411969e9	9.588357
30	0x40db7fc8	6.8593483
31	0x414c143e	12.754942
32	0x41187deb	9.530742
33	0x40d1b636	6.5534925
34	0x41a1e130	20.234955
35	0x40c6d3ea	6.2133684
36	0x412926cb	10.571971
37	0x40c3d7e5	6.1201043
38	0x40809daa	4.019246
39	0x40a60ca4	5.189043
40	0x41446635	12.274953
41	0x410c742a	8.77836
42	0x4142139c	12.129787
43	0x4126e592	10.431047
44	0x4204da9d	33.21349
45	0x4095389f	4.6631618
46	0x41411875	12.068471
47	0x41c2a2e8	24.329544
48	0x40d53816	6.6630964
49	0x40da8784	6.8290424
50	0x4126f019	10.433618
51	0x40d08c4f	6.5171275
52	0x40f5d628	7.682392
53	0x411303fb	9.188472
54	0x4103b40c	8.231457
55	0x41da5f42	27.296513
56	0x41c936a3	25.151678
57	0x40f09b63	7.518968
58	0x419937d2	19.152256
59	0x40b485e2	5.641343
60	0x40fd91de	7.924056
61	0x406d5708	3.708437
62	0x40ea394f	7.3194957
63	0x403ed286	2.9815993

weight f4 [128, 169]
0	0xbcdd3551	-0.027002962
1	0x3d67d8b8	0.056603163
2	0x3db14826	0.08656339
3	0x3d9565a3	0.07294776
4	0x3d59c28a	0.053164043
5	0xbe07b73e	-0.13253495
6	0x3dedb908	0.116075575
7	0xbd4dfcd6	-0.05028995
8	0xbdb2c17e	-0.08728312
9	0x3dfb3d6b	0.12267574
10	0xbd5cb7d0	-0.053886235
11	0x3db121ff	0.08649062
12	0x3c120b20	0.008913785
13	0xbd2a9a46	-0.041651033
14	0xbdd7c0cb	-0.10534819
15	0xbd8b2ea8	-0.06796008
16	0xbdc8ea2c	-0.0981029
17	0x3d1d8c75	0.03846403
18	0xbdfbdf7a	-0.12298484
19	0x3ce56dbe	0.02800643
20	0x3d5e0141	0.054200415
21	0x3d8856d5	0.06657187
22	0x3dc9015d	0.09814713
23	0x3d378cef	0.04481214
24	0xbdfb4964	-0.122698575
25	0x3de6461b	0.1124384
26	0x3c9c3718	0.01906924
27	0xbd240a63	-0.040048968
28	0xbdff34ab	-0.124612175
29	0x3df3b5dd	0.11899922
30	0xbdd22624	-0.10261181
31	0x3d61cc7e	0.05512666
32	0x3d866e5b	0.065640174
33	0xbe0ee8bc	-0.13955969
34	0x3d5557af	0.052085575
35	0xbc842eae	-0.01613554
36	0x3dc0e331	0.09418333
37	0xbdc45574	-0.095866114
38	0x3dab6f6d	0.08370862
39	0xbdad875a	-0.08473082
40	0x3d464ee9	0.0484151
41	0xbdbb2b07	-0.09139066
42	0xbd98148e	-0.074257955
43	0x3d085212	0.033281393
44	0xbd339d52	-0.043851204
45	0xbdb824bc	-0.089913815
46	0xbdcbec34	-0.099571615
47	0xbd9d544c	-0.07682094
48	0xbb69528c	-0.003560218
49	0x3d85d2eb	0.0653437
50	0xbd3f8cc3	-0.0467651
51	0x3d3f857a	0.046758153
52	0x3d3110c4	0.04322888
53	0xbe047058	-0.1293348
54	0xbda206ed	-0.07911477
55	0x3da9b2a2	0.08286025
56	0xbcafb257	-0.021447344
57	0x3de80f6d	0.11331067
58	0xbb612589	-0.0034354648
59	0x3c2b44cb	0.010453413
60	0xbd341e52	-0.04397423
61	0x3d9d1cf0	0.07671535
62	0x3d741e35	0.05959912
63	0xbce486f2	-0.027896378
64	0xbcfae175	-0.030625084
65	0x3dc735d4	0.09727064
66	0x3cf2e895	0.02965192
67	0xbda8c926	-0.08241491
68	0xbc66eb18	-0.014094137
69	0x3d333fb4	0.043761924
70	0xbd9953c7	-0.074866824
71	0x3c6654d6	0.014058312
72	0xbd9189ec	-0.07106385
73	0xbd848ec0	-0.0647254
74	0xbe07c772	-0.13259676
75	0x3dfd7547	0.123758845
76	0x3cc0efd0	0.023551852
77	0x3e1ecb82	0.1550732
78	0xbd6b4340	-0.05743718
79	0x3d4c9c2c	0.049953625
80	0x3e1d4692	0.15358952
81	0xbca1e46c	-0.01976224
82	0xbde4aaf2	-0.11165418
83	0xbcfd5233	-0.030922985
84	0xbdc404d0	-0.095712304
85	0xbc07be24	-0.008285079
86	0x3ddcea8f	0.10786926
87	0x3c3ceb10	0.011530653
88	0x3d00f2a4	0.0314814
89	0xbde9d6c6	-0.11417918
90	0xbdabccc7	-0.083886676
91	0x3d83db21	0.0643828
92	0xbdab3657	-0.08359974
93	0x3d0fdb35	0.03512116
94	0xbda86483	-0.08222296
95	0x3de11b83	0.109915756
96	0xbcf7ac9b	-0.030233672
97	0xbcb5d0d4	-0.022194304
98	0x3cd94ff9	0.026527392
99	0xbdb88b19	-0.09010906
100	0x3e024c1b	0.12724344
101	0x3da68638	0.08131069
102	0x3c6cf323	0.014462265
103	0xbb9e5b57	-0.004832666
104	0x3dd58cb8	0.104272306
105	0x3d3e227d	0.04641961
106	0xbcc87414	-0.024469413
107	0xbdffb090	-0.124848485
108	0x3d853337	0.06503909
109	0x3dcb6737	0.09931796
110	0xbe0da6e0	-0.13833189
111	0xbdac0688	-0.08399683
112	0xbd7c6376	-0.06161829
113	0xbd90b519	-0.07065792
114	0x3d0ae3cc	0.03390865
115	0xbd5902de	-0.05298125
116	0xbd06d47b	-0.03291748
117	0x3de94a83	0.11391165
118	0xbc9d28dc	-0.019184522
119	0x3d01d2c8	0.031695157
120	0x3e004655	0.1252683
121	0xbd356ffc	-0.04429625
122	0xbd988ae9	-0.0744837
123	0x3d940092	0.07226671
124	0x3d9462a3	0.07245376
125	0xbd89f1f5	-0.06735603
126	0x3cd0dfea	0.025497396
127	0xbcdf1986	-0.02723385
128	0xbdbdcb04	-0.09267238
129	0x3cf19cc2	0.029493693
130	0x3d9a2aa3	0.075276636
131	0xbd8cdcfb	-0.06878086
132	0xbcf297d0	-0.029613405
133	0xbe1eff63	-0.1552711
134	0xbc387507	-0.01125837
135	0x3c513b5e	0.012770502
136	0x3cd1687d	0.02556252
137	0xbd96e18b	-0.07367238
138	0xbd9d1e07	-0.07671743
139	0x3d0f0488	0.03491643
140	0x3de0920b	0.109653555
141	0x3dc7c2f6	0.09753983
142	0xbd96c8cd	-0.073625185
143	0xbd62c843	-0.055366766
144	0xbdef4e89	-0.11684901
145	0xbce1cdda	-0.027563978
146	0x3dde637e	0.108588204
147	0x3e089766	0.13339004
148	0x3db18f2f	0.08669888
149	0x3cbd0425	0.023073265
150	0xbcc42df6	-0.023947697
151	0xbdd7d079	-0.1053781
152	0xbd44db58	-0.048060745
153	0x3d1e129b	0.038591962
154	0xbda87855	-0.082260765
155	0x3db20e8f	0.08694183
156	0xbd201e98	-0.039091676
157	0x3d2ae608	0.04172328
158	0x3dd244ca	0.10267027
159	0x3d3f65cc	0.04672794
160	0xbe038103	-0.12842183
161	0xbd89eb4b	-0.06734332
162	0x3bde2840	0.0067797005
163	0x3bca1f60	0.006168291
164	0x3d38fe38	0.045164317
165	0xbd446c8c	-0.04795508
166	0x3db68c90	0.08913529
167	0xbd2413d8	-0.040057987
168	0x3c08f1b0	0.008358404
169	0x3d29c36f	0.041446146
170	0xbd9960ee	-0.07489191
171	0xbe001c4a	-0.12510791
172	0x3cd24d47	0.025671614
173	0xbe01a11f	-0.12659119
174	0xbd3ab83c	-0.045585856
175	0x3d2bac21	0.0419122
176	0xbdb693d1	-0.089149125
177	0x3df23818	0.11827105
178	0xbc01cb76	-0.007922044
179	0x3d9fc01d	0.078003146
180	0xbc9a156a	-0.01880904
181	0x3d56ad83	0.052411567
182	0x3d3be863	0.045875918
183	0x3e0d5bc5	0.13804539
184	0xbc74375d	-0.014905778
185	0xbe128121	-0.14307071
186	0xbdbb4981	-0.09144879
187	0x3d41599c	0.0472046
188	0xbdc36d96	-0.09542386
189	0x3c5bbc3d	0.013411579
190	0x3d80e942	0.062944904
191	0xbce3e185	-0.027817497
192	0x3e0f6af6	0.14005646
193	0xbda0262a	-0.07819779
194	0xbded7652	-0.115948334
195	0xbd67701e	-0.056503408
196	0xbd987660	-0.07444453
197	0xbe1c40ba	-0.15259066
198	0xbd2baf00	-0.04191494
199	0xbd93efe1	-0.07223488
200	0xbde0ddda	-0.10979815
201	0xbd690980	-0.056893826
202	0xbd760ce4	-0.060070887
203	0xbd82fdaf	-0.063960426
204	0x3da356d9	0.07975549
205	0x3d9d4a36	0.0768017
206	0xbcf93e0a	-0.03042509
207	0x3d0123b9	0.03152821
208	0xbc7a85c1	-0.0152906785
209	0x3db3b874	0.08775416
210	0x3d9a0647	0.075207286
211	0x3da3d5b6	0.079997465
212	0x3df00e1d	0.11721442
213	0x3da09821	0.07841516
214	0x3dbbbf14	0.09167305
215	0x3cf47f23	0.02984578
216	0xbd919561	-0.0710857
217	0x3dafd6b9	0.08585877
218	0x3d91ec26	0.0712512
219	0xbd04e2fb	-0.032443028
220	0xbdaa0692	-0.083020344
221	0x3db43680	0.087994576
222	0x3e166317	0.14686237
223	0xbd8d8d38	-0.06911701
224	0x3de6ec92	0.11275591
225	0xbe21142f	-0.15730356
226	0xbd3e9a00	-0.046533585
227	0x3d21b5ca	0.03948001
228	0x3caafcc6	0.020872485
229	0xbc82132a	-0.015878279
230	0xbd879db7	-0.066218786
231	0x3ddd1f1f	0.107969515
232	0x3e006e34	0.12542039
233	0x3c4c21e5	0.012459253
234	0x3da4ab3d	0.080404736
235	0x3c7148a5	0.014726792
236	0xbc3ba029	-0.011451759
237	0x3b9581a5	0.004562574
238	0x3cbd8923	0.023136681
239	0x3ddb2216	0.10699861
240	0x3daad2ed	0.08341012
241	0x3c946d4d	0.018118525
242	0x3d356241	0.044283155
243	0x3d925f04	0.07147029
244	0x3d45571f	0.04817879
245	0xbd862963	-0.06550863
246	0x3d86597f	0.06560039
247	0x3d293019	0.041305635
248	0x3e0f5ac8	0.13999474
249	0x3defc5e9	0.1170767
250	0xbe14227d	-0.14466281
251	0x3dd98e6c	0.10622868
252	0xbc38bd68	-0.011275627
253	0xbd56a2f3	-0.052401494
254	0x3e026e10	0.12737298
255	0x3d5da28c	0.054110095

bias f4 [128]
0	0xba5a5ecd	-0.00083301665
1	0x3c5f06ba	0.013612444
2	0xbcf18d5d	-0.029486353
3	0xbc446351	-0.0119865695
4	0xba340bb9	-0.0006868202
5	0x3c9189c6	0.01776589
6	0xbb82dede	-0.003993853
7	0x3b428689	0.002968224
8	0x3b1b2fc0	0.0023679584
9	0xbcaa15b8	-0.02076231
10	0xbb9baa51	-0.004750528
11	0x3c0cf9e3	0.0086044995
12	0xbc5fa0f5	-0.013649215
13	0xbc58af43	-0.013225379
14	0xbc06ffc7	-0.008239693
15	0x3c5e2908	0.013559587
16	0xba73a050	-0.0009293603
17	0x3bd3a6a7	0.0064590755
18	0xbbad1cf5	-0.005282993
19	0xbc0ad652	-0.0084739495
20	0x3b40a32a	0.0029394128
21	0x3b9079b7	0.004409041
22	0x3b44bd85	0.003002019
23	0x3ba88941	0.005143315
24	0xbbd994fb	-0.0066400743
25	0x3c811f8a	0.01576211
26	0xbbeab03b	-0.0071621216
27	0xb9b366a6	-0.0003421802
28	0x3bb15839	0.0054121283
29	0xbb96471e	-0.0045861145
30	0xbc8f3695	-0.017482081
31	0xba84b99d	-0.0010126118
32	0xbc8d6d91	-0.01726416
33	0xbc473188	-0.012157805
34	0xbb9c1260	-0.0047629327
35	0x3bf0003b	0.007324246
36	0xbb8d53f6	-0.0043129874
37	0xbb07055d	-0.0020602562
38	0x3bb0fcab	0.005401214
39	0xbbadbc9c	-0.005302025
40	0xbc080fab	-0.008304517
41	0xbc053ed6	-0.008132657
42	0x39b25a9c	0.00034018315
43	0x3c81ed19	0.015860127
44	0x3aaa9027	0.0013012931
45	0x3b255531	0.002522778
46	0x3bcbfccc	0.006225204
47	0xba8b4e29	-0.0010628152
48	0x3c51d76e	0.01280771
49	0x3bb57ebf	0.005538791
50	0xbb7bf46f	-0.0038445254
51	0x3c0bc204	0.008530144
52	0xbba4e0d9	-0.0050316867
53	0x39f0050d	0.0004578013
54	0xbc3f7fd8	-0.011688195
55	0x3bcc64d0	0.0062376037
56	0xbbc1776b	-0.0059041283
57	0xbcddc04a	-0.02706923
58	0xbac9e676	-0.0015403766
59	0xbb17b3f3	-0.002314803
60	0xbbde4497	-0.006783079
61	0x3bcb3e4a	0.006202494
62	0x3ba533ef	0.0050415914
63	0xbc3b9655	-0.011449416
64	0xbaf381b2	-0.0018578081
65	0xbc22edc7	-0.009944386
66	0x3bf8561d	0.007578625
67	0xbb846c36	-0.00404122
68	0xbbc9042c	-0.0061345305
69	0x3c1789e1	0.0092491815
70	0x3cb014ff	0.021494387
71	0x3b4dd91d	0.0031409927
72	0x3bbc37ce	0.005743957
73	0x3b83781b	0.0040121204
74	0x3b1d1c91	0.0023973326
75	0xbb6c6fe9	-0.0036077446
76	0x3c941891	0.01807812
77	0xbb54eaf0	-0.0032488666
78	0x3cbdc1e7	0.023163749
79	0x3c08e988	0.008356459
80	0x3c35748b	0.011075149
81	0xbc5a41fb	-0.013321395
82	0x3cb94cba	0.022619594
83	0x3bdb2255	0.0066874423
84	0x3ba5948f	0.00505311
85	0x3b049071	0.0020227695
86	0x39fb3df9	0.00047920624
87	0xbca0d0b3	-0.019630766
88	0x3cbc851a	0.023012687
89	0x3bcc15a1	0.0062281643
90	0x3b5b9ddc	0.003351084
91	0xbcb5241c	-0.022111945
92	0xbb60e37d	-0.003431528
93	0x3a6c7a6c	0.0009020928
94	0x3cbe9718	0.023265406
95	0x3bc8f250	0.0061324015
96	0xbbe1dcb3	-0.0068927645
97	0x3a5a92d4	0.0008337919
98	0xbc95e9c1	-0.01829994
99	0x3c9deabd	0.019276971
100	0x3c87093f	0.016483901
101	0x3b847b90	0.00404305
102	0x3ac52fb2	0.0015044122
103	0xbb82f04a	-0.00399593
104	0xbca01aff	-0.019544123
105	0x3b4ad517	0.0030949765
106	0x3c990005	0.018676767
107	0x3cb888da	0.022526193
108	0xbc0ef6f9	-0.008725875
109	0x3aad966f	0.0013243685
110	0x3b11738a	0.002219411
111	0x3b35379e	0.0027651559
112	0xbbdeaf16	-0.006795774
113	0xbbbd0dd6	-0.0057694716
114	0x3c0c3860	0.008558363
115	0xbb755370	-0.0037433766
116	0xbc4682f9	-0.012116187
117	0x3b46aafc	0.0030314317
118	0xbbe2a438	-0.006916549
119	0x3c817de3	0.015807098
120	0x3c02ed27	0.007991112
121	0xbc58c9e8	-0.013231732
122	0xbc694726	-0.0142381545
123	0x3c2c7915	0.010526915
124	0x3b8171f4	0.003950352
125	0x3cb7228a	0.022355337
126	0x3c104ca7	0.008807338
127	0xbc8a63f3	-0.016893363
